model.pth (torch, 9792 bytes, 3 tensors)

fc1.weight f4 [64, 29]
0	0xbd211b6c	-0.039332792
1	0x3b8df220	0.004331842
2	0x3e304c51	0.17216612
3	0xbe15a3a0	-0.14613199
4	0x3db542de	0.088506445
5	0x3acd5200	0.0015664697
6	0x3d6efc54	0.058346108
7	0xbe01ee96	-0.1268867
8	0x3e1a1669	0.15047611
9	0x3e37903a	0.17926112
10	0x3db56373	0.08856859
11	0xbe1389c0	-0.14408016
12	0x3d4e9c01	0.050441746
13	0x3dc21880	0.09477329
14	0xbd3fba28	-0.04680839
15	0xbe0a3159	-0.13495387
16	0x3dd9142a	0.10599549
17	0x3de73592	0.112895146
18	0xbdde99dc	-0.1086919
19	0x3df9cae6	0.12196903
20	0xbdf54996	-0.11976926
21	0x3d898308	0.06714445
22	0xbe1e9ed9	-0.15490283
23	0x3d92ad6a	0.07161982
24	0x3de3b3c2	0.111182705
25	0x3deee0ca	0.11663969
26	0xbe19ac30	-0.1500709
27	0x3e3c3d63	0.18382792
28	0xbdc1956e	-0.094523296
29	0xbdd6384a	-0.10459955
30	0x3dec2042	0.1152959
31	0x3de0a9a2	0.10969855
32	0x3d83058c	0.06397542
33	0xbdcc6d1a	-0.09981747
34	0xbe05edc0	-0.13078976
35	0x3d0bb3d0	0.03410703
36	0x3d35f7a0	0.044425607
37	0xbc887c90	-0.016660959
38	0xbe293df1	-0.16527535
39	0xbe203083	-0.15643506
40	0x3d8e3f66	0.06945686
41	0x3dc0430e	0.0938779
42	0x3d2c765c	0.042105064
43	0xbe0dc3ae	-0.13844177
44	0x3ba65240	0.005075723
45	0x3deb166a	0.114788845
46	0xbdd3b38e	-0.10336982
47	0xbdc92783	-0.098219894
48	0xbddbdc33	-0.10735359
49	0x3e0132c3	0.1261702
50	0xbda72360	-0.08161044
51	0x3e138049	0.14404406
52	0xbd306f18	-0.043074697
53	0xbe00d606	-0.12581643
54	0x3e23a337	0.1598023
55	0xbd83dc24	-0.06438473
56	0xbcf649c8	-0.030064479
57	0x3d6067d4	0.05478652
58	0x3c92962f	0.017893879
59	0xbd809c7b	-0.06279846
60	0xbdeba95a	-0.115069106
61	0xbd752b00	-0.05985546
62	0x3d9e1b2e	0.07720028
63	0x3e323503	0.17403035
64	0x3b920fc0	0.004457444
65	0xbce39bd0	-0.027784258
66	0x3d1d5fec	0.038421556
67	0xbe13fda9	-0.14452232
68	0xbcf68990	-0.030094892
69	0x3e2cea39	0.16886224
70	0xbe0bd1eb	-0.13654296
71	0xbd91f3a4	-0.07126549
72	0x3e1b0c5d	0.15141435
73	0x3e080b8f	0.13285659
74	0xbddcf2be	-0.10788487
75	0xbe2e8166	-0.17041549
76	0xbd8e0176	-0.069338724
77	0xbdc0d86e	-0.09416281
78	0x3e0f9f15	0.14025529
79	0xbda1e762	-0.07905461
80	0xbe0abeff	-0.13549422
81	0xbbc34de0	-0.005960211
82	0x3e25bc7d	0.16185184
83	0x3d6f181c	0.058372602
84	0xbe2bcfbc	-0.16778463
85	0x3e351b53	0.17686205
86	0xbdb048e9	-0.086076565
87	0x3dae3ca7	0.08507662
88	0x3b5c8080	0.0033645928
89	0x3d121d4a	0.035672463
90	0xbe1e126e	-0.15436718
91	0x3d1496f4	0.036276773
92	0xbd39d4fc	-0.045369133
93	0x3e1f831e	0.15577361
94	0x3e106dfd	0.14104457
95	0xbd88d69d	-0.06681559
96	0xbd76dc9a	-0.060268976
97	0xbd08aaaf	-0.0333659
98	0x3b8f34b4	0.0043702964
99	0xbd3ae8a7	-0.04563203
100	0x3df5eb49	0.12007768
101	0x3cd0cc68	0.025488093
102	0xbd56a438	-0.052402705
103	0xbe30814f	-0.17236827
104	0xbdc9622e	-0.098331794
105	0xbd6b03d8	-0.057376713
106	0xbe2b1348	-0.16706574
107	0xbdb8ca69	-0.09022982
108	0xbd84d7c1	-0.06486464
109	0x3c4d0d00	0.0125153065
110	0xbe3200ea	-0.17383161
111	0xbe3bc622	-0.183373
112	0xbde5ec95	-0.11226765
113	0x3d5cb81a	0.05388651
114	0xbe2eebf3	-0.17082195
115	0xbe0f1cd2	-0.13975838
116	0xbd56ee15	-0.052473146
117	0xbe2a737e	-0.1664562
118	0x3d69a7bd	0.057044733
119	0xbd8d521b	-0.06900426
120	0x3d91eb8c	0.07125005
121	0xbdf51ba9	-0.119681664
122	0x3e1aa179	0.1510066
123	0x3d5b4333	0.053530883
124	0xbde8dfd1	-0.113708146
125	0xbd6fd8e4	-0.058556452
126	0x3e126892	0.14297703
127	0x3d8d04b8	0.06885666
128	0x3dac11c4	0.08401826
129	0x3e176cc8	0.1478759
130	0x3da9d27b	0.08292099
131	0xbe003754	-0.12521106
132	0xbdfa444d	-0.122200586
133	0xbe2f7977	-0.17136179
134	0xbd1fc43d	-0.039005507
135	0xbc87c6b0	-0.016574234
136	0x3de87207	0.11349874
137	0xbde4deaf	-0.11175286
138	0xbd4fa381	-0.05069304
139	0x3bca5bc0	0.0061754882
140	0xbd3ec845	-0.04657771
141	0x3bc460da	0.005992991
142	0xbe0a84a0	-0.13527155
143	0x3e023a21	0.12717487
144	0x3d0e4b87	0.034739997
145	0x3d1439c8	0.036187917
146	0x3d1ccd6d	0.038281847
147	0x3c1d03e0	0.009583443
148	0xbd952da1	-0.07284094
149	0x3dab57a7	0.08366328
150	0x3cf1f9ab	0.029537996
151	0xbe0970e7	-0.13421975
152	0x3e31f6bf	0.17379282
153	0x3dd4f6fc	0.10398671
154	0x3e33ad8b	0.1754667
155	0xbd89fdd8	-0.0673787
156	0xbe1f0a29	-0.1553122
157	0xbe063437	-0.13105856
158	0xbdb39a77	-0.08769696
159	0x3e1185e7	0.14211236
160	0x3e0925b6	0.13393292
161	0xbddff7bf	-0.10935926
162	0xbdd359f5	-0.10319892
163	0x3db0a693	0.086255215
164	0xbe2bb3a1	-0.16767742
165	0x3cea83bc	0.028627269
166	0xbdde9526	-0.108682916
167	0x3d5991b1	0.053117458
168	0x3dc9f070	0.09860313
169	0xbca1d747	-0.019755973
170	0x3e23657f	0.15956686
171	0xbdd90e08	-0.105983794
172	0xbc80c948	-0.015720978
173	0xbe0f379f	-0.13986062
174	0xbdedc492	-0.116097584
175	0xbd182b78	-0.03715083
176	0xbdb07074	-0.08615199
177	0xbe28cb46	-0.16483793
178	0xbe353ec4	-0.17699724
179	0x3d109c68	0.03530541
180	0xbe34a679	-0.1764163
181	0x3e354765	0.17703016
182	0xbe40cd8b	-0.18828408
183	0x3e429e97	0.1900581
184	0xbcb3c481	-0.021944286
185	0x3d8bdbd1	0.06829036
186	0xbe2c2e67	-0.16814576
187	0xbdc75989	-0.09733874
188	0xbbc025b8	-0.0058638714
189	0x3e21d5a7	0.15804158
190	0xbd4b2bb6	-0.049602233
191	0xbd1cfa46	-0.038324617
192	0x3c8df81d	0.017330224
193	0x3d7005b4	0.05859919
194	0x3c791644	0.015203062
195	0xbe1f9550	-0.15584302
196	0xbc1a7557	-0.00942739
197	0xbe3006e7	-0.17190133
198	0x3dc86dbf	0.097865574
199	0xbd2b9d36	-0.041897975
200	0x3ca63ab8	0.020291671
201	0x3dfd30d1	0.123628266
202	0x3d91a4c3	0.07111504
203	0x3e3f9381	0.18708612
204	0x3d25da78	0.04049155
205	0x3d95dfca	0.07318075
206	0xbd35fe68	-0.044432074
207	0xbe09c7f2	-0.1345518
208	0xbd57bbf8	-0.052669495
209	0xbd66a0f6	-0.056305848
210	0xbdc06c72	-0.09395684
211	0x3e1e24d2	0.15443733
212	0x3d942359	0.072333045
213	0x3e126ecf	0.14300083
214	0xbdbabcdf	-0.091180556
215	0xbdbe1c1f	-0.092827074
216	0xbc9ef320	-0.01940304
217	0x3e359815	0.17733796
218	0xbcf28cec	-0.029608212
219	0xbda3614c	-0.07977542
220	0xbdd1171f	-0.10209488
221	0xbdc4f3fc	-0.09616849
222	0xbdf972b6	-0.121800825
223	0xbe0e70d0	-0.13910222
224	0xbe019811	-0.12655665
225	0xbe0a1017	-0.134827
226	0x3e18b838	0.14914024
227	0x3e26ebbf	0.16300867
228	0xbd2e4c4c	-0.04255323
229	0xbd27f8cc	-0.041008756
230	0xbda36667	-0.07978516
231	0xbdb2d40d	-0.08731852
232	0x3e21ece5	0.15813024
233	0xbe1b4e73	-0.15166645
234	0xbe306a25	-0.17227991
235	0xbe052bdf	-0.13005017
236	0x3e0998a2	0.13437131
237	0x3dc6bcbe	0.097039685
238	0x3d43ed50	0.04783374
239	0xbe29cf9e	-0.16583106
240	0x3dfe4492	0.124154225
241	0xbe34c67d	-0.17653842
242	0xbe2444f7	-0.16041933
243	0x3d4ec0e9	0.050476942
244	0x3e355ed3	0.17711954
245	0x3d0b2198	0.033967584
246	0x3d03bd04	0.03216268
247	0x3d877276	0.066136286
248	0x3da9c20e	0.08288966
249	0x3e06af96	0.13152918
250	0x3e23ff84	0.1601544
251	0xbe0a92da	-0.13532582
252	0xbcb3aa78	-0.021931872
253	0x3d474d10	0.048657477
254	0xbd34eb8c	-0.044169948
255	0xbd8a83dc	-0.067634314

fc1.bias f4 [64]
0	0xbd7a861e	-0.06116306
1	0xbe3609a2	-0.17777112
2	0xbd83f6bf	-0.064435475
3	0x3ded5eda	0.11590357
4	0x3d94e6a2	0.07270552
5	0xbcf18094	-0.029480256
6	0x3e364ea7	0.17803441
7	0x3d186edb	0.037215095
8	0xbd1a33d4	-0.037647083
9	0xbe0c1276	-0.13678917
10	0x3e099983	0.13437466
11	0xbc221ecb	-0.009895037
12	0xbbd69163	-0.006548093
13	0x3e18a39a	0.14906159
14	0xbd3ecde1	-0.04658306
15	0xbe373e79	-0.17894925
16	0xbddb7fc9	-0.107177325
17	0xbe26bcc8	-0.16282952
18	0x3dbf38a3	0.093369745
19	0x3d976172	0.07391633
20	0x3df924c1	0.121652134
21	0xbca8d6ed	-0.020610297
22	0xbdb00127	-0.0859397
23	0xbda3f4c9	-0.080056734
24	0xbe0b9f48	-0.1363498
25	0xbe36e0f6	-0.17859253
26	0x3dabbfba	0.08386178
27	0xbd9faabf	-0.07796239
28	0x3d5c0916	0.053719603
29	0x3d03a96d	0.032144
30	0xbd540485	-0.051762123
31	0x3e0cbf9c	0.13744968
32	0xbe3233db	-0.17402594
33	0xbdc08c5d	-0.09401772
34	0xbe36cb31	-0.17850949
35	0x3df1cf4f	0.11807119
36	0x3e0c2e11	0.13689448
37	0x3d8b94a5	0.06815461
38	0xbdf255f0	-0.118327975
39	0x3c8e5fc3	0.017379647
40	0x3e361b72	0.17783907
41	0x3daa5587	0.08317094
42	0xbcb9eceb	-0.02269598
43	0xbdc6108f	-0.09671127
44	0xbd879dd1	-0.06621898
45	0x3b22c7ba	0.0024838285
46	0x3de6adb5	0.11263601
47	0x3d79a2af	0.060946163
48	0x3c69be12	0.014266508
49	0xbca017f8	-0.01954268
50	0x3dcbe366	0.09955482
51	0xbdc09f45	-0.09405378
52	0x3d8752c5	0.06607584
53	0xbcb5817e	-0.022156473
54	0x3dff9a65	0.1248062
55	0x3d867118	0.0656454
56	0xbdc7a501	-0.09748269
57	0x3d0fe695	0.03513201
58	0x3e044796	0.12917933
59	0xbdc9227f	-0.09821033
60	0xbe14853d	-0.14503951
61	0x3dd1f9f4	0.10252753
62	0xbe097813	-0.13424711
63	0x3e09664c	0.1341793

fc2.weight f4 [1, 64]
0	0x3d2c8c43	0.04212595
1	0x3db32692	0.08747591
2	0xbd86dea8	-0.06585437
3	0x3e044210	0.12915826
4	0xbddd7a7c	-0.10814378
5	0x3de607c9	0.11231954
6	0x3da9ff4c	0.08300647
7	0x3d8890fb	0.06668278
8	0x3d13fe56	0.036131226
9	0xbdbe3613	-0.092876576
10	0xbd8cde56	-0.06878345
11	0x3de84529	0.11341316
12	0xbd282c7d	-0.041058052
13	0xbd5a0676	-0.053228818
14	0xbd4a7694	-0.04942949
15	0x3dd1f43e	0.102516636
16	0x3c164be4	0.009173367
17	0x3a35db00	0.00069372356
18	0xbd907b9d	-0.07054827
19	0x3bd171b0	0.0063917264
20	0xbd96ee84	-0.07369712
21	0x3d6d7959	0.057977054
22	0x3c6b6250	0.014366701
23	0xbcb2e46c	-0.021837436
24	0xbd49f594	-0.049306467
25	0x3d40c038	0.047058314
26	0x3d1d98ca	0.03847579
27	0xbd48ead4	-0.049052075
28	0xbdb0d2e8	-0.08633977
29	0xbcc78d0f	-0.024359254
30	0x3da30a72	0.07960977
31	0xbc5982b4	-0.013275791
32	0xbe03bf34	-0.12865907
33	0x3d12c948	0.035836488
34	0x3d77245c	0.06033741
35	0x3d7c504a	0.061600007
36	0xbcdc27a2	-0.026874367
37	0xbd33df0e	-0.043913893
38	0x3dd63352	0.10459007
39	0x3dcf5847	0.101242594
40	0x3c04874b	0.008088897
41	0xbc11fe6b	-0.008910756
42	0xbd5206e9	-0.05127612
43	0xbda67049	-0.081268854
44	0x3e04d4a0	0.12971735
45	0xbdcb46a5	-0.09925584
46	0xbd513b77	-0.0510821
47	0xbddbb4d3	-0.10727849
48	0xbdd30772	-0.103041545
49	0xbd31018b	-0.043214362
50	0x3cbe6c5e	0.023245033
51	0x3b34e880	0.00276044
52	0x3d88622c	0.0665935
53	0xbc5c4a92	-0.013445513
54	0xbda749b8	-0.081683576
55	0x3de2f74e	0.11082326
56	0xbaf5e578	-0.0018760404
57	0xbc964b54	-0.018346466
58	0x3dd9297b	0.10603615
59	0x3c98cde8	0.018652871
60	0x3cc20a91	0.02368668
61	0xbd861669	-0.06547243
62	0xbcff5250	-0.03116718
63	0x3da5ac4e	0.08089505
